ISLP_labs-stable/logs/hitters/version_0/checkpoints/epoch=49-step=300.ckpt (torch, 15292 bytes, 6 tensors)

model.sequential.0.weight f4 [50, 19]
0	0xbdd05151	-0.1017176
1	0x3cbcfa54	0.023068585
2	0xbe93e026	-0.2888195
3	0xbe89a4df	-0.268836
4	0xbe40e191	-0.18836047
5	0xbd1d9db6	-0.038480483
6	0xbdd61bed	-0.10454545
7	0x3da7bbe1	0.08190132
8	0xbdf67eed	-0.12035928
9	0xbd20f276	-0.03929373
10	0xbe2d657c	-0.16933244
11	0xbe1493d5	-0.14509518
12	0xbea36a82	-0.31917197
13	0xbe80fe02	-0.25193793
14	0xbe473d7a	-0.19457045
15	0xbdbb6535	-0.09150163
16	0xbc186f50	-0.009303883
17	0x3d1a3bcc	0.037654683
18	0xbe82d4e0	-0.25553036
19	0xbe4cb31e	-0.19990203
20	0xbc88944c	-0.016672276
21	0x3db95a32	0.090504065
22	0xbe16bf36	-0.14721379
23	0x3d92ca11	0.07167447
24	0xbe0c43f6	-0.136978
25	0xbd9b157f	-0.075724594
26	0x3ddca1cd	0.107730485
27	0xbea02a3a	-0.31282216
28	0xbe7a4ac8	-0.2444259
29	0xbe21dfc0	-0.1580801
30	0xbe41f8f4	-0.18942624
31	0x3dc92525	0.09821538
32	0xbe7eabe5	-0.2487026
33	0xbe528acc	-0.2056076
34	0xbe85434e	-0.26027912
35	0xbea13592	-0.31486183
36	0xbe6f8886	-0.23391923
37	0x3dc71395	0.09720532
38	0x3b1b49c0	0.0023695081
39	0x3c375c90	0.011191502
40	0xbdb41714	-0.08793464
41	0xbe5ed72a	-0.21761766
42	0xbd7a9e8e	-0.061186366
43	0xbea0df61	-0.31420425
44	0xbe8812c0	-0.26576805
45	0xbe5f825a	-0.21827069
46	0x3d3748bc	0.0447471
47	0x3d0d5bbc	0.034511313
48	0xbe4e962c	-0.20174474
49	0xbdddc0c9	-0.108277865
50	0x3d3f6302	0.04672528
51	0x3e0324bc	0.12806982
52	0xbc129a80	-0.0089479685
53	0xbd8d53d7	-0.06900757
54	0x3d5c727c	0.05382012
55	0xbe70b8f2	-0.23508051
56	0xbd6a7eaa	-0.057249703
57	0xbe8f93a7	-0.28042337
58	0xbe84dda6	-0.25950354
59	0xbe5fc1b6	-0.21851239
60	0x3b7953a0	0.003804423
61	0xbbfd8fb0	-0.007738076
62	0xbe718e74	-0.23589498
63	0xbd1cd5b6	-0.038289748
64	0x3cd15fd1	0.025558384
65	0xbe045f91	-0.1292708
66	0xbdbc48ef	-0.091935985
67	0xbd418d23	-0.04725374
68	0x3d2b2dec	0.04179184
69	0x3df5a82b	0.11994966
70	0xbeaab0d8	-0.33338046
71	0xbe3c7de0	-0.18407393
72	0xbcbdd6e2	-0.023173753
73	0x3cec6acb	0.028859517
74	0x3d9607b6	0.073256895
75	0x3d1503e6	0.03638067
76	0xbd5e96b6	-0.054342948
77	0xbe995788	-0.29949594
78	0x3cace368	0.02110453
79	0xbe12f7e1	-0.14352371
80	0xbe5aefaf	-0.21380495
81	0x3e50b9e7	0.20383416
82	0x3d987335	0.07443849
83	0xbea85ed8	-0.3288486
84	0xbd69b786	-0.057059787
85	0xbe0df994	-0.13864738
86	0xbe0d0f1a	-0.13775292
87	0xbe51efe1	-0.20501663
88	0xbc40f358	-0.011776768
89	0xbe718b82	-0.23588374
90	0x3dac3d92	0.08410181
91	0x3c8336e8	0.016017392
92	0x3d838c2d	0.06423221
93	0xbc68f658	-0.014218889
94	0xbea77485	-0.32706085
95	0xbe8b55a3	-0.27213773
96	0xbc55432b	-0.013016502
97	0xbde033f9	-0.10947413
98	0xbec65303	-0.38735208
99	0xbea0d6f9	-0.3141401
100	0x3b035553	0.002003987
101	0x3e56f3b9	0.2099141
102	0xbde11739	-0.109907575
103	0xbd887652	-0.06663193
104	0xbe5f1bc2	-0.21787933
105	0xbc353847	-0.011060781
106	0xbe345bf0	-0.17613196
107	0xbe3dad74	-0.18523198
108	0x3f17a96b	0.59242886
109	0xbe9c310d	-0.30506173
110	0xbd7f9684	-0.062399402
111	0x3f1c6dba	0.6110493
112	0x3ad67d41	0.0016364233
113	0x3f503024	0.81323457
114	0x3f2df0e7	0.6794571
115	0x3e4f3210	0.20233941
116	0x3eb24724	0.348199
117	0x3ee39b7c	0.44454563
118	0x3ef09f2f	0.46996447
119	0x3f02d97f	0.5111312
120	0xbdbcdd73	-0.092219256
121	0xbdf9b30e	-0.12192355
122	0xbe9de486	-0.30838412
123	0xbd2acf82	-0.0417018
124	0xbec3e34e	-0.38259357
125	0xbea6e30d	-0.325951
126	0xbe022e84	-0.12713057
127	0xbe5991ce	-0.21247026
128	0x3f81d2e6	1.0142486
129	0x3e7fdef1	0.24987389
130	0xbde4eab1	-0.11177576
131	0x3f1a6da4	0.6032355
132	0xbe7ce25c	-0.24695724
133	0xbef6c3d3	-0.48196277
134	0xbebd76d4	-0.3700472
135	0xbec64cd7	-0.387305
136	0xbf0694f0	-0.5257101
137	0xbf054e6b	-0.5207278
138	0xbed4b372	-0.41543156
139	0x3e515ece	0.20446321
140	0x3e2234fa	0.15840521
141	0x3cefd128	0.029274538
142	0xbcc12bc3	-0.023580438
143	0xbe3b91ea	-0.1831738
144	0xbeb21643	-0.3478261
145	0xbe1d05b9	-0.15334214
146	0xbd9bc292	-0.07605471
147	0x3dda88a6	0.10670595
148	0xbe8ab20d	-0.27088967
149	0xbf18d107	-0.5969395
150	0xbf32c829	-0.6983667
151	0xbeb58a42	-0.35457045
152	0xbd3e9a60	-0.046533942
153	0x3e00d51d	0.12581296
154	0x3dfe0442	0.12403156
155	0xbe6290e4	-0.22125584
156	0x3e128a39	0.1431054
157	0xbe37d416	-0.17951998
158	0xbd46a8d4	-0.04850085
159	0xbdbe8236	-0.093021795
160	0xbd34ff80	-0.044188976
161	0xbd38802c	-0.04504411
162	0xbe52ce96	-0.20586619
163	0xbe4ad71e	-0.19808623
164	0xbd130aac	-0.03589885
165	0x3b426f80	0.002966851
166	0xbdd57026	-0.10421781
167	0x3db0fd5a	0.08642073
168	0xbe537179	-0.20648755
169	0xbc7daae0	-0.015482634
170	0x3e4e983f	0.20175265
171	0xbe463902	-0.19357684
172	0x3ddb7856	0.10716312
173	0xbc8a93ec	-0.016916238
174	0xbe9d342e	-0.30703872
175	0x3d38effc	0.045150742
176	0xbe018238	-0.12647331
177	0xbe4f454a	-0.20241275
178	0x3daae96e	0.083453044
179	0xbe921e9c	-0.28538978
180	0xbd9a622b	-0.07538255
181	0xbe1795d4	-0.14803249
182	0x3d82b89d	0.063828684
183	0xbd134aa6	-0.035959862
184	0x3c27b2c8	0.010235496
185	0xbc9b7b7c	-0.01897978
186	0xbe1ee489	-0.15516867
187	0xbe17ce2a	-0.14824739
188	0xbe93ff50	-0.28905725
189	0x3cc720a4	0.024307556
190	0x3ea91fd9	0.3303211
191	0x3ef5c5ce	0.48002476
192	0xbcf04b12	-0.029332671
193	0x3e9443ce	0.2895798
194	0x3dd06a54	0.101765305
195	0x3e9761b2	0.29566723
196	0xbe8cd97e	-0.27509683
197	0x3d1c20e6	0.038117312
198	0xbda881ad	-0.08227859
199	0x3e148b06	0.14506158
200	0x3da81227	0.08206587
201	0x3e6fd6cf	0.23421787
202	0xbe355281	-0.17707254
203	0xbea24c6a	-0.31698924
204	0xbf55cd09	-0.83515984
205	0x3ebfd3c7	0.3746626
206	0xbe9e3d25	-0.30906025
207	0x3e9455b1	0.28971627
208	0xbdd0278e	-0.101637945
209	0xbeeb2b6e	-0.45931572
210	0xbf433c53	-0.7626392
211	0xbf5ea748	-0.86974
212	0xbf59b5db	-0.85043114
213	0xbf7141b9	-0.9424091
214	0xbf5ae419	-0.855043
215	0x3fa52ebb	1.2904886
216	0xbec37fb4	-0.38183367
217	0xbec2f15d	-0.3807477
218	0x3f1fd795	0.6243833
219	0xbe88f223	-0.26747236
220	0x3df9f0d1	0.12204135
221	0x3e01d20a	0.1267778
222	0x3fcf7495	1.6207453
223	0xbf8486cc	-1.0353637
224	0x3ec68339	0.3877199
225	0x3fabfd99	1.3436767
226	0x3f4ad9cf	0.792386
227	0x3fbccdf1	1.4750348
228	0xbdf67127	-0.12033301
229	0xbda1bb21	-0.0789702
230	0xbdf47891	-0.11937059
231	0x3d418c75	0.04725309
232	0xbdcb3fe3	-0.09924295
233	0x3d75a242	0.059969194
234	0x3e2b214b	0.16711919
235	0xbe185a00	-0.14878082
236	0x3dcb72da	0.099340156
237	0xbe25b1c5	-0.16181095
238	0xbdcd2138	-0.100161016
239	0x3d87d570	0.06632507
240	0x3d940f01	0.07229424
241	0x3ee1a27f	0.44069287
242	0xbe83978b	-0.25701556
243	0x3c68f9e8	0.014219739
244	0x3ec8e564	0.3923751
245	0xbe229493	-0.15876989
246	0x3ef85c70	0.48508024
247	0xbe9454bd	-0.289709
248	0xbdc6530a	-0.09683807
249	0xbd1fc334	-0.03900452
250	0xbdf7742e	-0.120827064
251	0x3cf86618	0.03032212
252	0x3e4242db	0.18970816
253	0xbe2b127c	-0.1670627
254	0xbe71df22	-0.23620275
255	0xbe3d487e	-0.18484685

model.sequential.0.bias f4 [50]
0	0xbe7552ec	-0.23957413
1	0xbe431890	-0.19052339
2	0xbe933b77	-0.28756306
3	0xbea61472	-0.32437474
4	0x3d18aec2	0.037276037
5	0x3ed53037	0.41638348
6	0x3e83e0b9	0.25757387
7	0xbedd4ae2	-0.43221194
8	0x3d9c513e	0.07632683
9	0xbdb7b133	-0.08969345
10	0xbe3b561a	-0.18294564
11	0x3faeeca0	1.3665962
12	0x3eb2c20e	0.34913677
13	0xbea6bc38	-0.32565475
14	0xbea8008d	-0.3281292
15	0xbc9ed9bb	-0.019390931
16	0x3e477d8b	0.19481485
17	0x3f8656e1	1.0495263
18	0xbd61de72	-0.05514378
19	0xbd1938fa	-0.037407853
20	0x3e16d667	0.14730226
21	0xbec641f7	-0.38722202
22	0x3e6a6333	0.22889404
23	0x3f6e380c	0.9305427
24	0xbe6a86bc	-0.2290296
25	0x3ca27250	0.0198299
26	0xbea42f2a	-0.32067233
27	0x3eb96b66	0.3621475
28	0xbe69bb39	-0.22825326
29	0x3e6c5332	0.23078611
30	0xbe2a9af1	-0.16660668
31	0xbe660a53	-0.22464876
32	0xbe183821	-0.14865161
33	0xbe664b6a	-0.22489706
34	0xbd8a37aa	-0.06748898
35	0xbd9ab863	-0.075547
36	0xbe8b97bb	-0.272642
37	0x3f792e42	0.9733621
38	0xbd9dd51e	-0.077066645
39	0x3e69729e	0.22797629
40	0x3cc03c0f	0.023466138
41	0x3e375ec3	0.17907242
42	0xbe170906	-0.14749536
43	0xbe31f115	-0.17377122
44	0x3e488e36	0.19585499
45	0x3df7add2	0.120937005
46	0x3bc811d5	0.0061056414
47	0xbdb0c553	-0.086313866
48	0xbdcb1d24	-0.099176675
49	0x3d912fd8	0.070892036

model.sequential.3.weight f4 [1, 50]
0	0x3db42d25	0.08797673
1	0xbc289e18	-0.010291599
2	0x3dcb04d0	0.09913027
3	0xbc70c083	-0.014694336
4	0x3d8e7dd1	0.06957591
5	0x3f118e0c	0.5685737
6	0xbf10fa98	-0.56632376
7	0xbdaf96ca	-0.085736826
8	0xbd0d7130	-0.034531772
9	0x3d7acdf8	0.061231583
10	0x3dac9048	0.08425957
11	0x3fba2d09	1.4544994
12	0x3e03f8c5	0.12887867
13	0x3b28ec60	0.0025775656
14	0x3db85c42	0.09001972
15	0x3dfc78a3	0.12327697
16	0x3e3ba859	0.18325938
17	0x3fad9960	1.3562431
18	0x3c949b1d	0.01814037
19	0x3bdc0f50	0.0067156926
20	0x3dc3509f	0.09536862
21	0xbd8d17b3	-0.06889286
22	0xbda81228	-0.08206588
23	0x3f48980f	0.78357023
24	0x3db881b9	0.09009118
25	0xbe08c72c	-0.13357228
26	0xbd248c2d	-0.040172745
27	0x3de48b20	0.111593485
28	0xbd4478b8	-0.04796669
29	0x3dcba851	0.09944213
30	0x3c415190	0.011799231
31	0x3ca887c8	0.020572558
32	0x3d48dadf	0.049036857
33	0x3d61b9fc	0.05510901
34	0x3dbe2791	0.092848904
35	0x3ddf4cad	0.109032966
36	0xbc037aa8	-0.008024849
37	0x3f8ecbff	1.1156005
38	0xbdf0ea51	-0.11763442
39	0x3e1829e0	0.14859724
40	0x3ced9d3f	0.029005645
41	0x3e044b97	0.1291946
42	0x3cc65e86	0.024214994
43	0x3c9b82ac	0.018983208
44	0x3db5ad8a	0.088709906
45	0x3de0a3ef	0.10968768
46	0x3d9f2a43	0.07771733
47	0x3d56578d	0.05232959
48	0xbd146d02	-0.03623677
49	0x3dd41c1e	0.103569254

square_avg f4 [50, 19]
0	0x46b0465f	22563.186
1	0x44c645f2	1586.1858
2	0x4190be13	18.09281
3	0x43deec7c	445.84753
4	0x43b42340	360.2754
5	0x438363cc	262.77966
6	0x41742752	15.2596
7	0x4a1aaad9	2.5340702e+06
8	0x4838534e	188749.22
9	0x44907838	1155.7568
10	0x47395219	47442.098
11	0x46ed4a88	30373.266
12	0x469a9e1b	19791.053
13	0x3d383b4f	0.044978436
14	0x3d088a08	0.03333476
15	0x45f522fc	7844.373
16	0x454d3200	3283.125
17	0x4183446e	16.408413
18	0x3d671d01	0.056424145
19	0x4a293762	2.7724405e+06
20	0x483e78cd	195043.2
21	0x4540a276	3082.1538
22	0x474e7fdf	52863.87
23	0x474e9afc	52890.984
24	0x47420db2	49677.695
25	0x44f37812	1947.7522
26	0x4daf42e1	3.6754947e+08
27	0x4bd1bb64	2.7489992e+07
28	0x489babec	318815.38
29	0x4ae30fe2	7.440369e+06
30	0x4ab837c2	6.036449e+06
31	0x4a91927d	4.7701105e+06
32	0x4060f87a	3.5151658
33	0x4026c791	2.6059306
34	0x4a367824	2.989577e+06
35	0x489686f3	308279.6
36	0x44b3d023	1438.5043
37	0x404dd6ca	3.2162347
38	0x3f540765	0.82823783
39	0x3d78d804	0.060752884
40	0x39219c6f	0.00015412433
41	0x3c40e5fd	0.0117735835
42	0x3be1859b	0.006882382
43	0x3b164282	0.0022927825
44	0x395820a8	0.0002061153
45	0x403f0100	2.984436
46	0x3e714324	0.23560768
47	0x3a277e72	0.0006389386
48	0x3d51eeeb	0.05125324
49	0x3cfb23bb	0.030656686
50	0x3c641669	0.013921359
51	0x37db9336	2.6175385e-05
52	0x3352c9ff	4.907815e-08
53	0x3f0a029f	0.5391025
54	0x40038d84	2.0555124
55	0x3af3b8e6	0.0018594533
56	0x37db9336	2.6175385e-05
57	0x4a2b4836	2.8062855e+06
58	0x483403d3	184335.3
59	0x45135afc	2357.6865
60	0x4748fe9f	51454.62
61	0x4726d1ea	42705.914
62	0x4724c2fd	42178.99
63	0x45468a99	3176.6624
64	0x4df89d5d	5.2138282e+08
65	0x4c0f2585	3.7525012e+07
66	0x48b91a1b	379088.84
67	0x4b1574ed	9.794797e+06
68	0x4af1e9fa	7.927037e+06
69	0x4ac8a6e6	6.574963e+06
70	0x41671042	14.441469
71	0x40a6b89d	5.210036
72	0x49bf7f09	1.5687371e+06
73	0x4912006d	598022.8
74	0x45147621	2375.383
75	0x412a28f0	10.6349945
76	0x4110a534	9.040333
77	0x3cb92555	0.02260081
78	0x00000000	0.0
79	0x00000000	0.0
80	0x00000000	0.0
81	0x00000000	0.0
82	0x3db92555	0.09040324
83	0x4217f7d2	37.992012
84	0x3fea534f	1.8306674
85	0x3db92555	0.09040324
86	0x3f504a09	0.8136297
87	0x3f8dc09b	1.1074404
88	0x3eb92555	0.36161295
89	0x3cb92555	0.02260081
90	0x00000000	0.0
91	0x430980dd	137.50337
92	0x4488bc24	1093.8794
93	0x3f504a09	0.8136297
94	0x3cb92555	0.02260081
95	0x4bbf42d4	2.5068968e+07
96	0x49db59ba	1.7969192e+06
97	0x46f600aa	31488.332
98	0x490015f3	524639.2
99	0x49013a92	529321.1
100	0x488c0c90	286820.5
101	0x46a2d2da	20841.426
102	0x4f56db00	3.6046766e+09
103	0x4d865220	2.8169114e+08
104	0x4a50cd4f	3.4210118e+06
105	0x4c860a47	7.027564e+07
106	0x4c893bcf	7.1949944e+07
107	0x4be91313	3.0549542e+07
108	0x433bdd49	187.8644
109	0x4256a3bf	53.65991
110	0x4ac164b9	6.3371165e+06
111	0x4b1889a9	9.996713e+06
112	0x465bc1b6	14064.428
113	0x433bdd49	187.8644
114	0x4d32f564	1.8765165e+08
115	0x4b82940c	1.711516e+07
116	0x48968aa3	308309.1
117	0x4a905f7b	4.7308135e+06
118	0x4a817144	4.24157e+06
119	0x49e3f9e1	1.8675801e+06
120	0x464dfbd0	13182.953
121	0x4ecd8b7d	1.7242354e+09
122	0x4d1240c2	1.5335734e+08
123	0x4a0de330	2.324684e+06
124	0x4c13dfd7	3.876438e+07
125	0x4c17b8e4	3.977307e+07
126	0x4b72ef90	1.592104e+07
127	0x43deafb9	445.37283
128	0x433a1298	186.07263
129	0x4dbff637	4.0257302e+08
130	0x4bda84e4	2.8641736e+07
131	0x479525fd	76363.98
132	0x43e0d718	449.68042
133	0x4b85e01a	1.7547316e+07
134	0x49ab9ebe	1.4059118e+06
135	0x46a1bb83	20701.756
136	0x48b3b5f3	368047.6
137	0x48c53550	403882.5
138	0x48841432	270497.56
139	0x46715bf3	15446.987
140	0x4f3b307e	3.1405174e+09
141	0x4d69b081	2.4504117e+08
142	0x4a9171ad	4.7659105e+06
143	0x4c7c6115	6.61597e+07
144	0x4c8a1341	7.2391176e+07
145	0x4c0e5fca	3.7322536e+07
146	0x419fd6f2	19.979954
147	0x41c3f723	24.495672
148	0x4b2496d8	1.078652e+07
149	0x49674ed2	947437.1
150	0x45b84e5f	5897.7964
151	0x416e9907	14.91236
152	0x00000000	0.0
153	0x00000000	0.0
154	0x00000000	0.0
155	0x00000000	0.0
156	0x00000000	0.0
157	0x00000000	0.0
158	0x00000000	0.0
159	0x00000000	0.0
160	0x00000000	0.0
161	0x00000000	0.0
162	0x00000000	0.0
163	0x00000000	0.0
164	0x00000000	0.0
165	0x00000000	0.0
166	0x00000000	0.0
167	0x00000000	0.0
168	0x00000000	0.0
169	0x00000000	0.0
170	0x00000000	0.0
171	0x4843757a	200149.9
172	0x4664488e	14610.139
173	0x432a33d1	170.20241
174	0x4576d775	3949.466
175	0x452cb6db	2763.4285
176	0x45283c57	2691.7712
177	0x42d0f457	104.47723
178	0x4b86c3a4	1.7663816e+07
179	0x49a1955d	1.3236916e+06
180	0x464650e5	12692.224
181	0x4896f796	309180.7
182	0x488a393a	283081.8
183	0x4831c834	182048.81
184	0x3f30ba4f	0.69034284
185	0x3ef30383	0.47463617
186	0x4799b833	78704.4
187	0x46e1a722	28883.566
188	0x42fbc756	125.88933
189	0x3ed8edfa	0.42369062
190	0x4cb15a21	9.298356e+07
191	0x4add3952	7.249065e+06
192	0x47f84366	127110.8
193	0x49f218fa	1.9832632e+06
194	0x4a0398b8	2.156078e+06
195	0x49aed733	1.4322944e+06
196	0x476ee166	61153.4
197	0x503199d1	1.1918591e+10
198	0x4e5d397c	9.27883e+08
199	0x4b6e69e6	1.5624678e+07
200	0x4d66c389	2.4197339e+08
201	0x4d75919f	2.5749758e+08
202	0x4d0a8ac7	1.4527192e+08
203	0x42bf1cc3	95.556175
204	0x42f37a01	121.73829
205	0x4ce423cb	1.1961097e+08
206	0x4ace14cf	6.7528715e+06
207	0x47027074	33392.453
208	0x42b6ab44	91.3345
209	0x4b844742	1.7337988e+07
210	0x4977520e	1.0130249e+06
211	0x4608054b	8705.323
212	0x486135e1	230615.52
213	0x484599cb	202343.17
214	0x48165b45	153965.08
215	0x463c041e	12033.029
216	0x4bdc1b71	2.884989e+07
217	0x49d3ce9a	1.7351232e+06
218	0x46c31189	24968.768
219	0x48de3090	455044.5
220	0x48e837bd	475581.9
221	0x4892772b	299961.34
222	0x4534f735	2895.4504
223	0x42772aa8	61.791656
224	0x4c5bef5d	5.7654644e+07
225	0x4d0b88c8	1.4631232e+08
226	0x47ec0af4	120853.91
227	0x4534f71b	2895.444
228	0x4b61376b	1.4759787e+07
229	0x4989e6c8	1.129689e+06
230	0x4699d247	19689.139
231	0x488ff88e	294852.44
232	0x48b02609	360752.28
233	0x4815651d	152980.45
234	0x462af98a	10942.385
235	0x4ed01350	1.7454633e+09
236	0x4cfcb293	1.32486296e+08
237	0x49b47780	1.478384e+06
238	0x4be1e316	2.9607468e+07
239	0x4bfcb1a3	3.3121094e+07
240	0x4b60c5f0	1.4730736e+07
241	0x42218909	40.383823
242	0x41ea84d1	29.314852
243	0x4a9ff3d7	5.2413235e+06
244	0x499094c6	1.1844088e+06
245	0x45aadf71	5467.93
246	0x41f9aa2e	31.208096
247	0x42e4e3fc	114.44528
248	0x3e927d79	0.28611353
249	0x00000000	0.0
250	0x00000000	0.0
251	0x00000000	0.0
252	0x00000000	0.0
253	0x3f927d79	1.1444541
254	0x43f07a7c	480.9569
255	0x41b966bf	23.175169

square_avg f4 [50]
0	0x3e1d3a21	0.15354206
1	0x417866c6	15.525091
2	0x381578cc	3.563687e-05
3	0x41db5fb0	27.421722
4	0x3cb92555	0.02260081
5	0x43941593	296.16855
6	0x4463e46c	911.5691
7	0x42af35a2	87.60475
8	0x00000000	0.0
9	0x3f8d72ea	1.1050694
10	0x43d3fd7c	423.98035
11	0x4537764b	2935.3933
12	0x42c82208	100.06647
13	0x3e927d79	0.28611353
14	0x3c87d90b	0.016582986
15	0x442f478e	701.11804
16	0x449b914a	1244.5403
17	0x44bed4a0	1526.6445
18	0x4156069d	13.376615
19	0x3dc181a4	0.09448555
20	0x43ec3ca1	472.47366
21	0x427d1fe7	63.281155
22	0x00000000	0.0
23	0x43e895da	465.17072
24	0x3b6bafab	0.003596286
25	0x00000000	0.0
26	0x427ee352	63.721992
27	0x43a78d97	335.10617
28	0x00000000	0.0
29	0x440508ad	532.13556
30	0x3b103c46	0.0022008582
31	0x00000000	0.0
32	0x41258891	10.345841
33	0x3fef55af	1.8698024
34	0x3aa3a926	0.0012486323
35	0x43eb6daa	470.85675
36	0x3b826cf6	0.0039802743
37	0x4446977d	794.367
38	0x00000000	0.0
39	0x447a90b2	1002.26086
40	0x4132053d	11.126279
41	0x00000000	0.0
42	0x40aa0248	5.3127785
43	0x3e92c468	0.2866547
44	0x43c55319	394.6492
45	0x43f4e631	489.79837
46	0x41a4c33c	20.59533
47	0x4343a289	195.6349
48	0x41a90cfd	21.131342
49	0x43c3d60d	391.67227

square_avg f4 [1, 50]
0	0x4db60f14	3.818052e+08
1	0x4dd6b900	4.5030605e+08
2	0x474b65ff	52069.996
3	0x4e733878	1.02014106e+09
4	0x4701836c	33155.42
5	0x4b67cd88	1.5191432e+07
6	0x4d317012	1.86057e+08
7	0x4ee3da2e	1.9113633e+09
8	0x00000000	0.0
9	0x4d63ce24	2.388711e+08
10	0x511cc0c8	4.2078077e+10
11	0x4cf60374	1.2898192e+08
12	0x4d7b272f	2.6335307e+08
13	0x471f5fc1	40799.754
14	0x484bdfe3	208767.55
15	0x50b23c8f	2.3922506e+10
16	0x5037ed8f	1.2343197e+10
17	0x4c9e2dcb	8.293129e+07
18	0x4db78b0c	3.849179e+08
19	0x448eb0a7	1141.5204
20	0x50ce7633	2.7710822e+10
21	0x4f7adf95	4.2089567e+09
22	0x00000000	0.0
23	0x4c32cf47	4.6873884e+07
24	0x47367c7b	46716.48
25	0x00000000	0.0
26	0x4f17a907	2.544437e+09
27	0x50700ca2	1.6109439e+10
28	0x00000000	0.0
29	0x5105c178	3.5904782e+10
30	0x3b2cc458	0.0026362147
31	0x00000000	0.0
32	0x4e6f19f6	1.002864e+09
33	0x4b736afc	1.5952636e+07
34	0x464ada99	12982.649
35	0x5091ff2e	1.9595358e+10
36	0x42345839	45.086155
37	0x4c30394f	4.6196028e+07
38	0x00000000	0.0
39	0x509e48b2	2.1244514e+10
40	0x4e0c8601	5.893981e+08
41	0x00000000	0.0
42	0x4e7539a2	1.02854874e+09
43	0x46815cb9	16558.361
44	0x51106e3e	3.8770303e+10
45	0x51069684	3.612818e+10
46	0x4b39d7ca	1.2179402e+07
47	0x51a05882	8.608496e+10
48	0x4ca0afdc	8.424624e+07
49	0x50fcbad5	3.3920821e+10
