ISLP_labs-stable/lightning_logs/version_0/checkpoints/epoch=29-step=5640.ckpt (torch, 68113 bytes, 4 tensors)

model.linear.1.weight f4 [10, 784]
00000000: 2518 cbbc 70ae 98bc 600a 1cbb 7849 813c
00000010: d0dc 8b3c fcf9 5dbc 600c 5abb d274 06bc
00000020: f0d9 bebb a5e8 0b3d 005d 4fb9 ca99 c4bc
00000030: eccf bebd c93a a3be 8b03 58be d432 8fbc
00000040: 80d3 82bc 3e75 d33c 5be5 07bd 9581 8bbc
00000050: 50b0 1c3b e2ec ea3c 8885 d8bc 552f 97bc
00000060: 64e7 313c 4b16 0c3d 78a3 27bc a812 683c
00000070: 600f 173b 9038 10bd eaca d3bc e39c 95bc
00000080: 75cb ce3c 4dab eebc 1dda ccbd 4771 c2be
00000090: 22e3 13bf 7757 b3be dd9d c8bf 2a57 0540
000000a0: 9f58 0640 bdb8 0b40 8c93 83c0 482f 2c40
000000b0: 4ae9 2b40 d475 2b40 ee91 6bc0 03b9 82bf
000000c0: e3fe 56bf 4be8 c2be 95ed 58be e428 a5bd
000000d0: f039 06bb ce2d f43c a089 fc3b 8ff5 06bd
000000e0: 2011 043c 5017 1a3c c536 3bbc ff8f 0040
000000f0: a389 0840 6209 b7be 99bb fdbf 9c4b 5a3e
00000100: 089c b8bf d0c8 54c0 454a b8c0 caeb 07c0
00000110: 0036 08c0 a7b9 cabf 5f71 84c0 1ae7 d2c0
00000120: 10aa 073e 0725 96c0 b8e0 30c0 7406 a3bf
00000130: f12c 70c0 5dce 50c0 3f77 86c0 2d82 50c0
00000140: 0eba febf c51b 8bbe 45fc 89bc 95b2 0bbd
00000150: a49a c9bb c37f cabc 0765 583c 19b3 a43f
00000160: 118f a2bf 0691 ba3f 9b60 84bf 52c1 eabf
00000170: 5721 b1bf 6364 bbbe 366c 04bf 860d 31be
00000180: ec50 8cbf 0677 163f f8f7 913f aa0a 52bf
00000190: 76f3 3d3f c2e7 053f ad7e acbf e6c7 a2bf
000001a0: 0b55 713f 4dc6 b3bf 1b16 38bf 943d 06bf
000001b0: fd53 62bf 85b8 8e3f 2f77 00c0 5a24 9c3c
000001c0: 006a 9abc def2 e3bc ca44 6fbf 7c4c dbbf
000001d0: db6f fabf a297 97c0 6fd8 f6bf dd5c 263f
000001e0: bdbc 57be 7642 0f3f ce9a 1dbf d1c0 923f
000001f0: 5710 56bf 5234 af3e 8263 bcbd 8dd3 013d
00000200: b8cc c9be 8928 663e 968b 45be edfb 8f3e
00000210: 3cba 88be edd3 12bf 2bf0 863f 7032 5a3e
00000220: 77ae 12bf 3e0b a0be fb47 41c0 a38e 72bf
00000230: dc92 a8bb f867 7abc 176b 16c0 f01d f1bf
00000240: e638 2ac0 7c39 34c0 3618 233f 6e67 b3be
00000250: 71ae 10be c788 dc3d 9877 713f ae73 8e3e
00000260: e217 73be 511a ac3e 6a50 073f 0b57 21be
00000270: 9cb7 483e 366a 0e3f b1de 75bd cddb c63d
00000280: 5791 923b 2d84 47be 2a0c a8be 3809 25bf
00000290: eb97 09bf b0ea 91bf bf53 96c0 dc88 1ac0
000002a0: 60d5 c13a 822e f3be d73d 12c0 0e9e 85c0
000002b0: 6a02 d1bf efc2 b8be f23b 313f 5e83 8a3e
000002c0: 49a5 37bc 895f b2bf 9c16 84be 7727 dfbd
000002d0: 2c7d 89be 724b 643f 1053 7c3e 9bbb 19be
000002e0: 8cdb 9f3e 3aeb 4cbd c7a9 e63e 6bf3 bd3c
000002f0: 6730 e7bd cb8e 3d3f f388 443f 7717 07bf
00000300: 5e4e c1bf 10ae 7dc0 efe3 adc0 e250 9abf
00000310: 817f f9b8 88a2 54c0 a352 3dc0 0bba 8bbf
00000320: 550b 0cc0 3efd 063e a741 333f 5db0 b83e
00000330: d65b 52bf 60f8 293f e983 4c3e d5a4 9d3e
00000340: 0dd3 f1bd 65c4 083f db35 6f3e e81d 36be
00000350: 7476 1bbe df27 333f 20c8 dc3e aa4d ba3e
00000360: 74d0 ebbd 66e7 8abe 192d fcbe 09a1 a43e
00000370: abb4 863e 353c 7bbf 6e69 d0c0 9845 39bf
00000380: 608b 2e40 4eb6 1ec0 42a4 c03f 1f1f db3f
00000390: b9fe f9bf 7872 30bf d1c1 d3be 3f06 1ebe
000003a0: 4021 fc3e bb35 b33e a804 c1be 142d 163e
000003b0: 8943 ca3e ac91 e3be 306d e03e 70d4 e63e
000003c0: 8c79 353f e0ef 253f 1a64 393d d3d9 81be
000003d0: 34a8 233f 4c27 163f bc70 153f 2aae fabb
000003e0: 12a5 c1be 8c94 1ac0 9308 bbc0 2aa4 58c0
000003f0: d1d8 73be 3823 a5bf 5760 04c0 5a6d 9a3f
-0.024791786 -0.018637866 -0.0023809895 0.015782103 0.017073065 -0.01354837 -0.0033271536 -0.008206563
-0.00582432 0.034157414 -0.00019775704 -0.023999114 -0.09317002 -0.31880787 -0.21095102 -0.017480291
-0.015969992 0.025812741 -0.033177715 -0.017029563 0.0023908801 0.028677408 -0.02643086 -0.018455187
0.0108583905 0.034200948 -0.010231845 0.014164604 0.0023049936 -0.035210192 -0.025853593 -0.018263286
0.0252435 -0.029134417 -0.10002539 -0.3797705 -0.5776845 -0.35027668 -1.5673176 2.083445
2.099159 2.1831505 -4.111761 2.6903858 2.6861138 2.6790667 -3.6807818 -1.0212711
-0.83982676 -0.3806785 -0.2118438 -0.0806444 -0.002048131 0.029806998 0.007706836 -0.032949027
0.008060724 0.009404972 -0.011426632 2.0087888 2.1334007 -0.35749346 -1.9822875 0.21317905
-1.4422617 -3.3247566 -5.759066 -2.1237664 -2.128296 -1.5837907 -4.1388392 -6.5907106
0.13248467 -4.69202 -2.7637157 -1.2736344 -3.752743 -3.2625954 -4.2020564 -3.2579453
-1.9900529 -0.27169624 -0.016843924 -0.034105856 -0.006152468 -0.024719125 0.013207681 1.2867156
-1.269991 1.4575508 -1.0341982 -1.8340247 -1.38383 -0.36600026 -0.51727617 -0.17290315
-1.0962195 0.58775365 1.1403799 -0.8204752 0.74199617 0.5230676 -1.3476158 -1.2717254
0.9427039 -1.4044892 -0.7190873 -0.5243771 -0.88409406 1.1150061 -2.0072744 0.019060303
-0.018849373 -0.027825769 -0.9346434 -1.7132716 -1.9565386 -4.73726 -1.92848 0.6498545
-0.21068092 0.55960786 -0.6156434 1.1465093 -0.8361868 0.34219605 -0.09198667 0.03169589
-0.39414 0.224764 -0.19291529 0.28121892 -0.26704586 -0.57354623 1.0542043 0.21308303
-0.5729746 -0.31258577 -3.0200183 -0.94748896 -0.00514446 -0.015283577 -2.3502862 -1.8837261
-2.6597228 -2.8160086 0.6370882 -0.35039848 -0.14129044 0.10768276 0.9432311 0.27822632
-0.2373958 0.33613828 0.5285708 -0.1575586 0.19601291 0.55630815 -0.06002683 0.097098924
0.0044728923 -0.19484015 -0.3282178 -0.6446719 -0.53747433 -1.1399746 -4.697723 -2.4146032
0.0014788322 -0.4749642 -2.2850244 -4.175544 -1.6328862 -0.36086223 0.69232094 0.2705335
-0.011208841 -1.3935405 -0.257985 -0.10896199 -0.2685331 0.8917762 0.24641061 -0.15012972
0.31222188 -0.050029017 0.45051405 0.02318736 -0.11288529 0.7404601 0.7677147 -0.5277018
-1.5102041 -3.963749 -5.434074 -1.2055933 -0.00011896995 -3.3224201 -2.9581687 -1.0916151
-2.1881917 0.13182542 0.7002205 0.36072055 -0.8217138 0.66394615 0.19972195 0.3078982
-0.11807833 0.53424674 0.23360388 -0.17784846 -0.15181905 0.69982713 0.43121433 0.36387378
-0.11514369 -0.27129668 -0.49253157 0.3215411 0.26309714 -0.98138744 -6.51287 -0.72371817
2.7272568 -2.479877 1.5050128 1.7118872 -1.953086 -0.68924665 -0.41358808 -0.1543207
0.49244118 0.3500193 -0.37698865 0.14665633 0.3950465 -0.44447076 0.43833303 0.45083952
0.7088859 0.64819145 0.04526148 -0.253615 0.6392853 0.5865371 0.58375144 -0.0076501565
-0.3782125 -2.4153166 -5.8447967 -3.3850198 -0.23813178 -1.2901373 -2.06838 1.2064621

model.linear.1.bias f4 [10]
00000000: 1865 79bf b424 f73f 70bc 063f 493e 48bf
00000010: 9a54 e43e 54d6 2840 0f71 27bf efcc be3f
00000020: d677 0cc0 723b 0abf
-0.9741988 1.9308076 0.5263128 -0.7822004 0.44595796 2.6380816 -0.6540689 1.4906291
-2.1948142 -0.53996956

square_avg f4 [10, 784]
00000000: 0000 0000 0000 0000 0000 0000 0000 0000
00000010: 0000 0000 0000 0000 0000 0000 0000 0000
00000020: 0000 0000 0000 0000 0000 0000 0000 0000
00000030: 2876 ec19 edad 551c d519 341c f616 a017
00000040: 0000 0000 0000 0000 0000 0000 0000 0000
00000050: 0000 0000 0000 0000 0000 0000 0000 0000
00000060: 0000 0000 0000 0000 0000 0000 0000 0000
00000070: 0000 0000 0000 0000 0000 0000 0000 0000
00000080: 0b75 a60a e115 350d 895d fc10 0b45 2618
00000090: 96d3 f81a c914 111b 4cbb 7c24 c35f 592d
000000a0: 429f 542e 702e 0f2d 3a23 0a27 cfd5 de31
000000b0: 3c23 5033 d353 3c32 72e2 1827 3819 7e1e
000000c0: c072 d31d 6b14 4616 b991 3a11 28bc 4611
000000d0: 0000 0000 0000 0000 0000 0000 0000 0000
000000e0: 0000 0000 0000 0000 3847 c31d b683 692c
000000f0: f7b4 db2a fb91 261c 2999 a32e 7d53 e02e
00000100: 844f 442d ce2a 762b c81d 1c2b c4a3 1632
00000110: abf6 4f32 7aa5 ad30 0f5b bd30 bb02 4330
00000120: 77b8 e631 dbac 632f ed42 3d2d d065 be2d
00000130: 55ea 0e2d d93d 8d2b af76 9225 29bf 0c24
00000140: 90e5 3323 3a62 7a16 0000 0000 0000 0000
00000150: 0000 0000 0000 0000 55f5 ec1e 631f 072e
00000160: 99e2 6c2f e427 db2f 5ad6 3930 7ace 1433
00000170: d772 ca33 845b 7733 e82e d633 0a3a ef34
00000180: 0142 fc34 f857 9334 48ac db34 1778 1b35
00000190: 1a0d 0f35 5869 f434 6540 e934 dca2 0335
000001a0: 817b 4f34 2fd2 5033 2dd8 f431 b850 cf31
000001b0: 6208 8131 2ca8 532f e7b3 de2a 0000 0000
000001c0: 0000 0000 92d2 1a14 f7fb 1c20 4531 612c
000001d0: 7b6a 952d 8c79 812e 4425 d132 8aa1 3734
000001e0: 5fc3 9734 d267 0f35 1cc6 9b35 bd27 c435
000001f0: a504 aa35 260f bf35 9a36 f235 df2d 1736
00000200: 8665 1736 1485 1b36 e852 0a36 0a88 0636
00000210: bb4d ac35 89ec 4335 2a84 fa34 dd8c 3534
00000220: e4c5 1234 08ed 6232 7c30 d929 f296 261f
00000230: 0000 0000 0000 0000 5016 ec2b 2020 502f
00000240: 8fa6 3e2f aecf 0f33 6385 8d34 cec8 fe34
00000250: 7b21 5d35 e0ca c435 0707 2836 c758 5b36
00000260: 0d9d 7d36 7ba6 9736 13e6 b136 2005 cb36
00000270: 48ec d136 51e3 c836 af07 be36 42b2 7436
00000280: 6e11 3d36 9115 1e36 c737 bd35 e331 1835
00000290: 6663 9f34 2cb0 0132 1e87 0a29 51ad 5c27
000002a0: 0000 0000 0a27 c31e 6a86 332c 01a4 3325
000002b0: 673e 8930 4dd0 4534 f93b d834 4923 6235
000002c0: 4d64 9d35 bbb5 1c36 c9b2 8236 dc90 9636
000002d0: 2166 b136 a0f1 f536 c976 0d37 80ba 1e37
000002e0: e730 2937 3959 2137 0670 0f37 cfeb e236
000002f0: 02f7 b936 ea61 8336 8336 2d36 6e19 a135
00000300: 52f5 8734 3343 6032 fa04 632a 7541 f529
00000310: 3200 0000 f13c bc25 67d4 4325 08ef 2829
00000320: 6f1c b730 5d06 2c34 94dc 1a35 1f1c 9a35
00000330: 6c1f f735 f101 5436 79eb a036 0aa5 b736
00000340: 04ad ea36 5ae0 1437 eaf0 2837 3566 3437
00000350: 4534 3537 56d9 2837 dc8d 2837 002e 1537
00000360: 8cd3 0037 57a6 b036 39bf 8436 0844 1236
00000370: 561d 5435 01dd 0734 aade 7e2a 0516 e62a
00000380: ed3d 7531 a85a 3128 a6f6 8f27 11fd 9b30
00000390: fceb 5832 328b a934 f236 8035 e3d1 f235
000003a0: 558f 3336 fc12 8f36 7276 c336 208c ec36
000003b0: 3924 0237 8a57 1f37 17a2 2d37 84dd 1d37
000003c0: 5fe3 1237 0c2c 1337 9c65 1837 a46c 0437
000003d0: 62b7 ee36 de0f c636 1ba9 9336 4711 2836
000003e0: 58d3 6035 a9dc d832 7f00 082b ed53 8e25
000003f0: 4fbc 4619 2adf 1e22 5d25 6923 da07 5732
0.0 0.0 0.0 0.0 0.0 0.0 0.0 0.0
0.0 0.0 0.0 0.0 2.4449551e-23 7.070058e-22 5.959039e-22 1.0345554e-24
0.0 0.0 0.0 0.0 0.0 0.0 0.0 0.0
0.0 0.0 0.0 0.0 0.0 0.0 0.0 0.0
1.6029245e-32 5.5801267e-31 9.954059e-29 2.1489855e-24 1.0291223e-22 1.2000835e-22 5.4802436e-17 1.2356285e-11
4.834467e-11 8.13892e-12 1.9170444e-15 6.4853576e-09 4.846082e-08 1.09621e-08 2.1216994e-15 1.3451863e-20
5.5969884e-21 1.6000755e-25 1.4717717e-28 1.5677426e-28 0.0 0.0 0.0 0.0
0.0 0.0 5.168971e-21 3.3184406e-12 3.9027784e-13 5.511347e-22 7.4395885e-11 1.0201171e-10
1.1158966e-11 8.745616e-13 5.5463663e-13 8.768385e-09 1.2105072e-08 1.2634438e-09 1.377744e-09 7.0944467e-10
6.7148522e-09 2.070694e-10 1.0758267e-11 2.1645713e-11 8.123798e-12 1.0035819e-12 2.5407386e-16 3.051958e-17
9.752221e-18 2.0225834e-25 0.0 0.0 0.0 0.0 2.5088939e-20 3.0723323e-11
2.1544579e-10 3.9864212e-10 6.760722e-10 3.4646725e-08 9.427247e-08 5.7592402e-08 9.973684e-08 4.4559448e-07
4.6986682e-07 2.744489e-07 4.091728e-07 5.7916753e-07 5.3290717e-07 4.552519e-07 4.3446485e-07 4.9038294e-07
1.9323308e-07 4.8619935e-08 7.125911e-09 6.0336696e-09 3.755347e-09 1.9250085e-10 3.9559954e-13 0.0
0.0 7.816541e-27 1.3297082e-19 3.2001773e-12 1.6986626e-11 5.887832e-11 2.4347749e-08 1.710197e-07
2.8268093e-07 5.342273e-07 1.1606057e-06 1.4614703e-06 1.2667339e-06 1.4235018e-06 1.8046296e-06 2.2527454e-06
2.2559848e-06 2.3174262e-06 2.061186e-06 2.0046741e-06 1.2837621e-06 7.2987365e-07 4.666229e-07 1.6908184e-07
1.3669302e-07 1.3208826e-08 9.6451466e-14 3.5276726e-20 0.0 0.0 1.6775002e-12 1.8928903e-10
1.7339573e-10 3.3483666e-08 2.6360348e-07 4.7457291e-07 8.2377636e-07 1.4662182e-06 2.5038041e-06 3.2685218e-06
3.7791353e-06 4.5195316e-06 5.301795e-06 6.050468e-06 6.256192e-06 5.9869276e-06 5.6633357e-06 3.6462593e-06
2.817334e-06 2.3556388e-06 1.4097831e-06 5.669701e-07 2.968838e-07 7.548845e-09 3.075935e-14 3.0625088e-15
0.0 2.0662574e-20 2.5512045e-12 1.5581342e-16 9.985798e-10 1.8422834e-07 4.027677e-07 8.424291e-07
1.1726603e-06 2.3351593e-06 3.8951152e-06 4.487212e-06 5.2869004e-06 7.329698e-06 8.431912e-06 9.460957e-06
1.0084571e-05 9.617122e-06 8.549547e-06 6.7627766e-06 5.542185e-06 3.915503e-06 2.5810739e-06 1.2002836e-06
2.5324204e-07 1.3053795e-08 2.0163377e-13 1.08915406e-13 7e-44 3.2654097e-16 1.6985519e-16 3.751082e-14
1.3323084e-09 1.6021063e-07 5.7690454e-07 1.1482078e-06 1.8412079e-06 3.1591592e-06 4.795784e-06 5.473038e-06
6.993885e-06 8.873723e-06 1.00696725e-05 1.0752633e-05 1.0800611e-05 1.0064183e-05 1.00466095e-05 8.891802e-06
7.678649e-06 5.2645732e-06 3.956168e-06 2.1795295e-06 7.9018844e-07 1.2653256e-07 2.2636984e-13 4.0871486e-13
3.5687393e-09 9.845132e-15 3.995789e-15 1.134966e-09 1.2626511e-08 3.157998e-07 9.552734e-07 1.809149e-06
2.6756509e-06 4.263942e-06 5.8252417e-06 7.049661e-06 7.757038e-06 9.49752e-06 1.0349343e-05 9.409505e-06
8.755217e-06 8.772138e-06 9.083564e-06 7.893108e-06 7.1143013e-06 5.902707e-06 4.400628e-06 2.5044008e-06
8.375405e-07 2.5246054e-08 4.8317595e-13 2.4689944e-16 1.0274389e-23 2.1531135e-18 1.2638867e-17 1.2516432e-08

square_avg f4 [10]
00000000: aa7a b137 6f47 ef37 ac1b d438 7570 1339
00000010: dcee 9f38 f39e 2a39 84e4 2138 0cc5 8b38
00000020: 160e 6a39 70e9 0939
2.1157164e-05 2.8524284e-05 0.00010114102 0.00014060906 7.626202e-05 0.00016271677 3.8598213e-05 6.664739e-05
0.00022321226 0.000131523
